lesson01/mnist.pt (torch, 816329 bytes, 4 tensors)

layer1.weight f4 [256, 784]
000000 b8 8e da 3b 93 91 c0 bc 38 c2 9f bb a0 71 25 3b
       0.0066698454 -0.023506915 -0.0048754476 0.0025244728
000010 e2 50 88 3c aa 0f c5 bc fe 7e 87 bc e2 96 0b bd
       0.01664013 -0.02405532 -0.016540047 -0.03407944
000020 44 b0 7b 3c 10 c3 b1 3b c4 51 5b 3c a6 1d 55 bc
       0.015361849 0.0054248646 0.013386194 -0.013007557
000030 d5 3a 25 3b 75 f0 88 3c 2d 55 b4 3c d8 87 4c 3b
       0.0025212069 0.016716221 0.022013271 0.00312089
000040 63 6d da bc b3 37 0d bd b0 30 e5 bb e4 4f 75 3c
       -0.026663488 -0.034476947 -0.0069943294 0.014972661
000050 50 e8 1b bb d8 74 b5 3b 0e 2e 0a bc 9e ca e2 3c
       -0.0023789592 0.0055376105 -0.008433832 0.027684506
000060 55 6f ff bc 70 49 19 3b e0 be 2e 3c af d2 0f 3d
       -0.031181017 0.002338972 0.010665625 0.035113033
000070 60 b4 a7 3a 30 3c 8d 3b 33 7d 04 3d fd 2f 10 bd
       0.0012794845 0.0043101534 0.03234596 -0.035202015
000080 74 64 aa bc f6 97 ab bc 6d 21 8e 3d 70 9b 42 3d
       -0.020799853 -0.020946484 0.06939969 0.047511518
000090 b4 8d 5b 3d 2a c0 69 3d 55 e9 3f 3d ed d4 64 3d
       0.053601936 0.057068028 0.046853382 0.055867124
0000a0 45 8b 55 3e 97 11 87 3e d2 e7 6a bd ec db fc ba
       0.20853908 0.26380607 -0.057349987 -0.0019291616
0000b0 ff 12 18 3e d1 b0 03 3e 2d da d9 3d fb 56 12 3e
       0.14850996 0.12860419 0.10637317 0.14290993
0000c0 b6 2b f5 3d 3c d5 ba 3d 43 d3 ba 3d bd c2 93 3a
       0.11971228 0.091227025 0.09122326 0.0011273246
0000d0 60 22 32 3b fa 72 06 bd fc 3b 04 bd d8 71 a8 bc
       0.0027181134 -0.032824494 -0.032283768 -0.020562097
0000e0 68 53 b3 3b 80 f4 de 3b e9 a7 56 3c 7c 3b fc 3d
       0.0054725893 0.006804049 0.013101556 0.12316033
0000f0 c6 05 15 3e 87 f3 52 3d 1b d3 86 3d 13 8e 45 3d
       0.14552984 0.051501777 0.06583234 0.048231196
000100 10 97 70 3b f6 3c e6 bc ea 3a 04 3e 44 bc 46 3e
       0.0036711134 -0.02810524 0.12913099 0.19407755
000110 15 ea 27 3e 50 c5 ba bd e9 40 8e bc 4d 1d 23 be
       0.16397889 -0.091196656 -0.017364936 -0.15929146
000120 3b 33 2c be d5 3e 5e be 9c 94 e3 bd 32 34 1d 3e
       -0.16816418 -0.21703656 -0.11112329 0.15351942
000130 a8 ba 56 3e fa cd 37 3e e3 ce 1a 3d 87 d9 e4 3d
       0.20969641 0.17949668 0.03779496 0.111743025
000140 1f 10 a3 3d 92 63 11 3d 65 6e bf bc 6e e7 6b bc
       0.07962059 0.03549535 -0.02336807 -0.014398439
000150 13 18 cb bc c0 11 44 bc a1 d6 0e be cb 3f 77 3d
       -0.024791753 -0.011967123 -0.13949062 0.060363572
000160 0d 6a 94 3d 31 41 6a 3e 4b 1a 75 3e 57 b8 11 3e
       0.0724679 0.22876431 0.23935811 0.14230476
000170 19 77 e3 bc be 32 f2 bd 97 bd a0 bc 1c 3b e4 3d
       -0.027766751 -0.118260846 -0.019621653 0.11144087
000180 c9 f4 df 3d 29 bc 5d bd a6 40 ad 3d 91 3b 44 3d
       0.10935361 -0.05413452 0.08459596 0.04790837
000190 dc ac cd 3d f0 ad c2 3d 28 f7 67 bc fe 39 29 3c
       0.10042736 0.09505832 -0.014158048 0.010328768
0001a0 54 59 cc 3d 79 0b eb bd ef 6c 8f be 83 4f 70 be
       0.099779755 -0.114767976 -0.28012797 -0.23467831
0001b0 99 f2 45 bd f9 70 7e bd 7b 79 48 3a c8 15 fe bc
       -0.048327062 -0.062119458 0.00076474965 -0.031016245
0001c0 d0 c4 6a 3c f6 c4 34 3d e1 91 e7 bd 8c 9c e3 bc
       0.01432915 0.04413315 -0.11307121 -0.027784608
0001d0 32 b9 4a 3d 8e de 6d 3e 94 98 00 3e cd 6a e6 bd
       0.049493022 0.23229429 0.12558204 -0.112508394
0001e0 e8 cb 49 be 9c ee 77 be 1c e7 34 be 13 6f 1c be
       -0.1970669 -0.24212116 -0.17666286 -0.15276746
0001f0 86 90 1f be 28 c3 c4 bd f4 32 c7 bb 2a 6f 9b 3d
       -0.15582475 -0.096075356 -0.006079072 0.07589562
000200 91 75 87 3d 12 e8 44 3e db ce 1d 3e 67 a4 1c 3d
       0.06614221 0.19229153 0.1541094 0.038242724
000210 80 78 26 bd 1d f2 0e bc d6 34 4e bd 9f d7 93 bd
       -0.04064226 -0.0087247165 -0.050343357 -0.07218861
000220 23 a1 a2 bd 8d 58 ae bc 82 6b 9a bc f5 ff 95 3d
       -0.07940891 -0.021282459 -0.018850092 0.073242106
000230 e0 4e 26 3c 22 d8 fe 3c 7f b4 6d bd 56 69 b8 3d
       0.010150641 0.03110892 -0.058033463 0.09004466
000240 38 a0 d2 3d a5 cc 89 3e 48 3c a4 3d db 12 96 bd
       0.102844656 0.26913944 0.0801931 -0.07327815
000250 80 95 16 bd 9f 86 a9 3d a8 eb 20 bd 0e cf 89 bc
       -0.036763668 0.0827763 -0.03928724 -0.016822364
000260 57 5e 27 3b ae 28 67 3c 6f 79 ac 3d 8c b7 ad 3c
       0.0025538409 0.01410882 0.08421599 0.021205686
000270 6e 7d de bc 7d 52 e7 bb f1 e4 a9 3d e1 ad b7 3a
       -0.027159419 -0.007059394 0.0829562 0.0014013612
000280 4d 4b b3 bd 01 47 10 3d d1 2d 36 3e 8f 84 8e 3e
       -0.08754597 0.035223965 0.17790915 0.2783551
000290 e6 f1 86 3c c0 09 00 be 4d f4 22 bd 6d 8e 94 3d
       0.016472768 -0.1250372 -0.039783765 0.07253728
0002a0 e8 a6 f5 3b 1f 38 bb 3d d6 52 90 3d a8 4d 1a 3e
       0.0074967034 0.091415636 0.0704705 0.15068686
0002b0 00 59 c5 3d b6 37 ee 3d e0 5c 39 bd 53 47 0a bd
       0.09636116 0.1163172 -0.045254588 -0.033759426
0002c0 88 b0 d4 3d bb 9a 65 3d 9c a1 27 3c cb e7 00 3e
       0.10385233 0.056055766 0.010231402 0.12588422
0002d0 49 f7 10 3e f8 88 13 3d 6e e1 4e 3d 54 5f c4 bd
       0.14156832 0.036019295 0.050507955 -0.09588495
0002e0 cf 91 b9 bd 1f f0 b2 bd 13 7c ca bd 4b 80 12 bd
       -0.09061014 -0.08737206 -0.098869465 -0.03576688
0002f0 e4 f0 07 be 86 33 b0 3d d4 29 14 3e 4d cd 1b 3d
       -0.13275486 0.08603577 0.14469081 0.038037587
000300 42 d3 6f 3d 84 33 0a be 9e 9a a4 3d 59 91 d2 3d
       0.05855108 -0.13496214 0.080373034 0.10281629
000310 87 dd a3 bc 21 66 7f 3e da 2d 1a bb ef 24 83 3e
       -0.020003093 0.24941303 -0.0023525865 0.25614116
000320 33 76 c9 bb e1 9e aa 3c f8 46 66 bd 0e c5 6c 3a
       -0.0061481236 0.020827712 -0.056220025 0.0009032049
000330 7f de 83 3d b1 13 6c 3d 18 c3 49 3b d2 2d 9b 3c
       0.06438922 0.057635967 0.003078645 0.018942747
000340 d9 a6 dc bb a9 7d a7 3d 44 11 4d 3d fb af 89 bd
       -0.006733757 0.08178265 0.050065294 -0.06723019
000350 a8 82 cd bd 5e bb fb bd dc 80 1d be 51 e2 2d be
       -0.10034686 -0.12291597 -0.15381187 -0.16980864
000360 b3 9c 45 be a9 f8 aa bc 27 60 47 3d ea cd 4e bc
       -0.19298057 -0.020870524 0.048675682 -0.012622336
000370 56 14 0a be e2 ad 56 be 93 98 65 3e fc 63 6f 3d
       -0.1348432 -0.20964769 0.22421484 0.058444962
000380 5f fa 6b 3e 4b 7d 7f 3e 25 4c 0d bd 37 df 0f 3e
       0.23044728 0.24950139 -0.034496445 0.14049993
000390 b3 f3 08 3d cc 48 fd bd 84 e5 66 bd f7 07 ed bd
       0.033435535 -0.123674005 -0.056371227 -0.11573785
0003a0 37 0d db bc 86 35 12 be 7e 18 1e be a2 6f 44 be
       -0.0267397 -0.1427823 -0.1543903 -0.1918321
0003b0 24 8d cd bc 8a 7d b5 bd 8a 88 6b 3d 18 8c 21 3d
       -0.025091715 -0.08861835 0.05750326 0.039440244
0003c0 55 2b 55 bd 6b 38 f1 bd bd 20 00 be f2 61 0f be
       -0.052043278 -0.11778339 -0.12512489 -0.14002207
0003d0 c4 95 45 bd 2e 62 a9 3d a3 b3 f4 3d 30 75 9f bd
       -0.04823853 0.082706794 0.119483255 -0.077860236
0003e0 c7 bc 03 be 49 2e 18 be 93 d9 e2 3c 8a 9b 04 bd
       -0.12864982 -0.14861406 0.027691638 -0.032374896
0003f0 4f 1c 9f 3d 6b a2 3b 3e 45 71 11 3d 9c ca f5 3d
       0.07769071 0.18323676 0.035508413 0.12001535

layer1.bias f4 [256]
000000 70 e2 92 bd 90 47 84 3c b3 b7 f1 3d 43 2b dc bd
       -0.07172096 0.016147405 0.11802616 -0.10750439
000010 5c 07 45 bd 77 0c 1c 3e e8 e5 0b 3d 3e 28 85 3b
       -0.04810272 0.1523913 0.034154803 0.004063635
000020 0b 64 48 bd b7 56 5b 3d 0d 22 c8 3d 30 10 d6 3d
       -0.048923533 0.053549495 0.0977212 0.10452306
000030 62 97 c9 3c 1a 1c 45 3e f5 c3 b5 3d d4 19 13 3d
       0.024608318 0.19249001 0.088752665 0.035913303
000040 b4 ae 8a 3c 0f 77 b2 3d d0 0d a2 bd 24 4f e2 3c
       0.016929008 0.08714115 -0.07912791 0.027625628
000050 10 91 01 bd f3 58 65 bd 0d bb fe 3c 08 84 a8 3d
       -0.031632483 -0.05599303 0.031095052 0.08228308
000060 90 cb 33 be 39 50 a4 bc c6 03 2b 3d cf 73 c9 ba
       -0.17558122 -0.020057784 0.041751646 -0.0015369597
000070 cf 86 84 3d bc 44 8f 3d fc c4 bd 3c e6 3d ee 3c
       0.06471025 0.06995532 0.023165219 0.02908225
000080 d9 60 33 3d 8c 26 5e bb 7f 04 a8 3b 5c 6d fc bd
       0.043793533 -0.0033897487 0.005127489 -0.12325546
000090 cd 63 17 3e 29 f7 06 bd e9 00 95 3d 11 d4 0e 3d
       0.14784165 -0.032950554 0.07275564 0.03487021
0000a0 9e ce 18 bd 78 ba 0f 3d ba 31 e1 3d 59 bb d8 bc
       -0.03730642 0.03508994 0.10995813 -0.026456522
0000b0 7e 89 0b bc a6 e1 b5 3d 1d ca 75 bd b5 92 9c 3d
       -0.008516667 0.0888093 -0.060007203 0.0764517
0000c0 30 b7 05 bd e9 0f 56 3c 2c 84 0a 3d 4a b3 97 bd
       -0.032645404 0.013065317 0.033817455 -0.074072435
0000d0 aa 21 02 be be 48 ba 3d 73 d4 e8 3d 66 07 92 3d
       -0.12708154 0.09095906 0.113686465 0.071303174
0000e0 20 b5 b2 3d 0c f3 f2 bd 7e b6 9e 3d 77 33 9b 3d
       0.08725953 -0.11862764 0.07749651 0.075781755
0000f0 e9 81 97 3d 92 3d ba bd d2 76 0e 3e 09 64 7f 3b
       0.07397825 -0.09093775 0.13912514 0.0038969538
000100 9e 10 b4 bd 16 b9 db 3d 18 3d ba 3d a0 2f 31 3d
       -0.08792232 0.10728662 0.09093684 0.04325831
000110 fd 2e 16 bc c9 b6 35 bd 1d f1 b4 3d bc 14 12 be
       -0.009166476 -0.04436377 0.08835051 -0.14265722
000120 5f 46 f5 3d cb 40 87 bd 10 b1 0c 3e f2 48 94 3c
       0.11976313 -0.06604155 0.13739419 0.01810119
000130 e1 ef 1d bd 46 55 82 bd 54 22 e9 3d c0 74 90 3d
       -0.038558844 -0.06363921 0.11383501 0.07053518
000140 08 1f da bd 1d 41 2c 3e 73 73 af 3d 99 be 26 bd
       -0.1065045 0.16821714 0.08566942 -0.04070911
000150 2d 78 be 3d 4a 2a 6d 3d 78 a8 33 3e 2a 04 69 bc
       0.093002655 0.057901658 0.17544734 -0.014222184
000160 a1 c8 cd 3c 79 15 f5 3c 79 4e c2 bd 0f 60 0b 3d
       0.025120081 0.029917466 -0.09487624 0.034027155
000170 be e2 1f 3e cf 5c c2 3d 8c 65 46 b9 2f eb 6e bc
       0.15613839 0.09490358 -0.0001892058 -0.014582439
000180 bc 1a 99 3d ba 87 7f bc e4 b4 00 be bc 2a b3 bc
       0.07475802 -0.015596325 -0.12569004 -0.021870963
000190 66 b1 88 3e fe 77 e5 3c e7 4e f5 3d 4a d8 bb bd
       0.26697844 0.028011318 0.1197794 -0.09172113
0001a0 d3 d8 79 bd a8 51 a0 b7 be b0 65 bd 1b c4 bc 3d
       -0.060997795 -1.911151e-05 -0.056076758 0.09217092
0001b0 60 89 53 3e 15 08 24 3d 25 dc 0d bd 17 72 0a 3e
       0.20657873 0.04004677 -0.034633774 0.13520084
0001c0 03 8f a3 bc 9a 20 9b 3d 3b 42 27 bd 09 9f 5b 3d
       -0.019965654 0.07574578 -0.040834647 0.053618465
0001d0 0d 47 c2 3b d0 5e 13 3e 12 2c 3b bd 5b d6 e0 bc
       0.00592888 0.14391637 -0.045696326 -0.027445963
0001e0 7b c2 f9 bc b2 c3 91 bd 26 b1 3b 3e 59 ad a3 3d
       -0.030488243 -0.07117404 0.18329296 0.07992048
0001f0 46 1d 64 3d fc 28 1c 3e 85 77 4b 3d 7b 40 59 bd
       0.05569198 0.1525001 0.04967453 -0.05304001
000200 4a f7 a2 3d 3d 48 59 3d 7f 7b 0c bd 3e f5 f1 3d
       0.07957323 0.053047407 -0.034297463 0.11814354
000210 9b a4 cb 3c eb 4b 97 bd 07 5f a6 bc 61 a6 83 bb
       0.024858763 -0.07387527 -0.020308984 -0.0040176366
000220 55 39 23 bb d0 f2 0b 3b c0 1a ba 3d 9c dc 38 3d
       -0.0024905999 0.0021354444 0.090871334 0.045132264
000230 96 78 a2 bb c1 a7 46 bd 79 74 df bd d2 56 71 3d
       -0.0049582226 -0.048499826 -0.10910887 0.05892069
000240 c1 ee ad 3c ff 7c b5 bb ae b8 bc bd 5f 65 3d bd
       0.02123201 -0.0055385823 -0.09214912 -0.046239253
000250 02 ac fb bd bb cf 6a bd 99 f9 69 3e 43 a8 4b 3d
       -0.12288667 -0.057327013 0.2284912 0.049721014
000260 64 d9 9b 3c a1 0d cf bd 3e e3 1c 3e d7 cb 19 be
       0.019024558 -0.101100214 0.15321061 -0.15019165
000270 42 93 9f bd f0 fa e3 bd 2f 63 14 3e 90 9e 09 be
       -0.07791759 -0.11131847 0.1449096 -0.13439393
000280 e8 ab a7 bd 96 ff 08 3c d9 2a 52 3e eb 87 4e 3c
       -0.081870854 0.008361718 0.20524158 0.012605648
000290 46 57 37 bd 77 6f e1 3d ff 8d c9 bd f6 81 25 3c
       -0.044760965 0.11007588 -0.09841537 0.010101786
0002a0 b3 75 04 3e 59 18 d5 3d de 6c a0 3c a3 06 e2 3c
       0.12935524 0.104050346 0.019583162 0.027591055
0002b0 e9 10 a7 bd 94 f7 15 bd cf 80 9e 3c d3 44 bf 3d
       -0.08157522 -0.036613062 0.01934853 0.09339299
0002c0 da 99 19 3c b0 41 ae 3c a6 f7 89 3d 7c c5 96 bc
       0.00937506 0.021271557 0.06736688 -0.018404715
0002d0 d4 e3 b8 3d 4b c4 05 bd ae d2 c6 bc 9e 4a 73 3d
       0.0902783 -0.032657903 -0.024270382 0.059397332
0002e0 db 33 23 3d da cc 69 3d a3 f5 81 3d 73 4e 10 3c
       0.039844375 0.057080127 0.063456796 0.008807766
0002f0 7a 01 75 3d 22 64 8c bb a8 ab ef bc 19 fe 6d 3c
       0.05981586 -0.0042843977 -0.029256657 0.014525914
000300 f3 43 dc 3c 43 0a 15 3e 88 fd 94 3d a8 26 73 3e
       0.02688787 0.14554696 0.0727492 0.23745215
000310 44 12 02 3d 39 68 83 3d 34 24 19 3e 7c 34 ae 3d
       0.0317557 0.06416363 0.14955217 0.08506104
000320 97 af 36 3d e8 1d 5a 3e 91 2e d3 3c ac bf 44 3c
       0.04460105 0.21300471 0.02577904 0.012008589
000330 2f b1 28 bd e3 e0 54 bc ec 63 02 3d 8e a6 ed 3c
       -0.0411846 -0.01299307 0.031833574 0.029010084
000340 f7 a4 02 3d 9e 63 53 3e 99 90 21 bd f8 1b 00 bb
       0.031895604 0.2064347 -0.03944454 -0.001954792
000350 94 66 37 bd 71 a6 ff bc 72 04 07 3d fa 69 fb 3d
       -0.04477556 -0.031207295 0.032963224 0.12276073
000360 38 22 1b 3e 77 c1 27 3e a0 c6 08 be 76 96 f1 3d
       0.15149772 0.16382395 -0.1335702 0.11796276
000370 0a 1a b5 3d a6 c8 e9 bb 2a e9 ff 3d 8b f3 01 bd
       0.08842857 -0.007134515 0.124956444 -0.0317264
000380 3f 71 0e 3d 5f ed a7 bc b4 ac 27 3e c0 aa a2 3d
       0.03477597 -0.02049893 0.16374475 0.07942724
000390 f1 08 47 bd 00 15 e2 3d 2e 7a 2a 3e ed 4f 0a bd
       -0.04859251 0.11039162 0.1664817 -0.03376763
0003a0 a8 0c a4 3d 46 f7 a5 3d 1d bd 0c bd 6e 2f 0e 3d
       0.080102265 0.08103804 -0.03436004 0.0347132
0003b0 6e 9b 88 3d 80 f9 db bc fb 16 64 bd df fd ae bd
       0.06670271 -0.02685237 -0.05568598 -0.08544516
0003c0 75 b1 43 bd ba f6 90 bd fd 5c 3f 3e d8 a6 9e bd
       -0.047776658 -0.07078309 0.18687816 -0.07746667
0003d0 f9 7b 84 bd 54 62 5d ba 12 65 10 3d 53 49 4c bd
       -0.064689584 -0.0008445133 0.03525264 -0.049874615
0003e0 5f 82 8d 3b af ff be bc 17 7e 3f bd b4 3a b3 3b
       0.00431852 -0.023315279 -0.046751108 0.0054696444
0003f0 f0 c2 32 3e ed b7 5c 3c f1 f0 9e 3d 24 7a 22 3e
       0.17457175 0.013471586 0.077608 0.15866905

layer2.weight f4 [10, 256]
000000 a5 7f 1c 3e 22 6d 2e 3e 0c 2f 75 3e 08 02 85 3d
       0.15283068 0.17033818 0.23943728 0.06494528
000010 cc e1 a8 3c 96 02 b2 bd ac de d2 bd 10 d2 4c be
       0.02061548 -0.086918995 -0.102963775 -0.20002007
000020 8d 29 92 be 25 37 c5 be 90 07 dc be 13 3d 02 3d
       -0.28547326 -0.38518634 -0.4297452 0.031796526
000030 e1 bc fa bd b5 98 dd 3d b6 66 f8 3c 6b 36 1b 3e
       -0.12243057 0.10820142 0.030322414 0.15157478
000040 6f 12 9d be cf d7 57 be d0 30 f8 3d c4 37 b4 be
       -0.30678126 -0.21078418 0.12118685 -0.35198796
000050 14 05 06 3e c1 ee 4e 3d ac 4d 96 be 81 0c 60 bd
       0.13087875 0.050520662 -0.29356134 -0.054699425
000060 44 93 16 3d 58 68 db bd be 5d 3f be 77 9c e3 3c
       0.036761537 -0.10713261 -0.18688104 0.02778457
000070 19 0b ad be 59 e8 8b be e5 38 dc 3b 27 e4 9c be
       -0.3379753 -0.27325705 0.0067206495 -0.30642816
000080 43 73 32 3d 63 73 42 be 0c b3 c1 be d7 81 bf be
       0.043566953 -0.18989329 -0.37831914 -0.37403747
000090 45 77 a2 3d cd 5d 50 bd 95 8d 93 be 0f d8 da 3d
       0.07932905 -0.050870705 -0.28818956 0.10685741
0000a0 01 e1 89 be a7 5b 51 3e 52 95 ab bb df dd 2f be
       -0.26929477 0.20445119 -0.005236306 -0.17174481
0000b0 3e fa 6d 3c e0 f2 eb bd b5 d0 2b be 1e ae de be
       0.014524994 -0.11520934 -0.16778834 -0.43492216
0000c0 cf 5a 81 bd 3f 2b 3a bd 13 cb 36 3d a0 e0 8d be
       -0.063161485 -0.0454514 0.04462726 -0.27710438
0000d0 63 ae e9 3d 20 81 15 be c4 53 36 be 4f 14 1d 3e
       0.11410215 -0.14600039 -0.17805392 0.15339778
0000e0 d9 9d 5f be a1 6b 82 3e 4d 25 66 3c 80 b0 2e bd
       -0.21837558 0.2547274 0.014046979 -0.042648792
0000f0 5e aa 63 bd bb 11 dd bc 7f 79 0b bf 07 dc a7 3d
       -0.055582397 -0.026985994 -0.54482263 0.08196264
000100 98 64 8f be 1a 2d ee 3c 40 90 8f 3e da 91 f9 be
       -0.28006434 0.02907424 0.28039742 -0.48744088
000110 04 f2 e4 3d 99 a9 31 bd 28 87 59 3d d3 f2 07 3e
       0.11178973 -0.04337463 0.05310741 0.13276224
000120 1f 47 23 3e ea d7 be 3d 33 88 29 3d 14 7f dd 3d
       0.159451 0.09318526 0.041389655 0.10815254
000130 08 fa f7 3c 6c 4c 48 be 3b 43 0f 3e 8e ec 08 3e
       0.030270591 -0.19560403 0.1399049 0.13371488
000140 75 18 be be 26 92 68 bd d4 7f a0 3d 20 1b 06 bd
       -0.37128034 -0.056780003 0.07836881 -0.032740712
000150 7f 93 82 bc 3c ca 36 3e ac 24 59 3d 7b 81 0a 3e
       -0.015939472 0.17850584 0.05301349 0.13525955
000160 d4 66 89 3d a1 e3 43 bd 34 9b 65 bc 66 c3 2b 3e
       0.06709066 -0.047824506 -0.014014054 0.16773757
000170 82 3d 6a be aa b7 ad be 6c a3 c3 3d f5 96 20 be
       -0.22875026 -0.33929187 0.095526546 -0.15682586
000180 68 e7 0c be 2a ec fc bd 18 47 21 3e 9d 24 a7 3d
       -0.1376015 -0.12349732 0.15749776 0.0816128
000190 83 5f 14 be 1f 16 48 3e 53 e4 28 be 1d 07 72 be
       -0.1448956 0.19539689 -0.16493349 -0.23635526
0001a0 eb 92 4d 3e 99 92 aa bd 42 86 b4 be 6e 62 a7 bd
       0.20075576 -0.083287425 -0.3525868 -0.08173071
0001b0 44 0d d4 3d ef 02 f8 3d aa 3d 81 be b7 4a af be
       0.10354093 0.121099345 -0.25242358 -0.3423669
0001c0 c5 99 0a bf 4d 37 9c bd 97 ca da be c3 f4 56 bd
       -0.54140884 -0.07627735 -0.4273269 -0.052479517
0001d0 32 fa 85 3e 63 d5 9c bc ee ec b8 3c 24 02 32 bd
       0.26167446 -0.01914472 0.022573914 -0.043459073
0001e0 39 2c 7d bd 35 11 60 3d e1 36 65 3d a7 c7 9a 3d
       -0.061809752 0.05470391 0.05596054 0.07557612
0001f0 f7 4f ca 3c 53 34 12 bf 76 01 76 bd cd 5c 4b be
       0.024696333 -0.5711109 -0.060059987 -0.1985962
000200 5c 54 70 3d d9 d7 af 3c b9 36 e9 3c 92 fd eb 3c
       0.0586742 0.021465229 0.028468477 0.028807435
000210 43 aa 55 bf 6f 51 41 be fb ca 03 3e 46 1e c9 3d
       -0.83462924 -0.1887872 0.128704 0.09820227
000220 32 1b 18 be 46 6b 59 3e ec 5c 14 be ac 76 88 bd
       -0.14854124 0.21232328 -0.14488572 -0.0666326
000230 eb ae d7 bd 53 4b 21 3e 55 46 b3 3d 17 f8 18 3e
       -0.1053141 0.1575139 0.08753649 0.14938389
000240 5e b1 fe 3d 75 68 5a be 65 1b 7e 3d d9 3e 5b 3e
       0.12436174 -0.2132891 0.062037844 0.21410693
000250 d4 64 08 3d 19 77 04 3e 91 89 dd bd 1b ab 5e be
       0.033299282 0.12936057 -0.10817254 -0.21744959
000260 00 a3 26 bd bd 4c 3c 3e 76 41 11 3d a1 01 51 bd
       -0.040682793 0.18388648 0.03546282 -0.051026944
000270 cc 70 13 3d 87 36 e9 3c 7a 7e 53 bd e8 13 d8 bd
       0.035996243 0.028468383 -0.05163429 -0.10550672
000280 56 d7 bc 3d a3 95 06 be 5e 1b b2 3d 4e 35 45 bd
       0.092207596 -0.1314302 0.08696626 -0.04814654
000290 15 bc b4 3d 2b 2b aa 3d b8 48 3a 3d b2 82 69 3d
       0.08824936 0.08309015 0.045479506 0.057009406
0002a0 b4 66 3d 3e 5e 47 82 3d 60 ff ae 3e eb c7 c7 3d
       0.1849621 0.063612685 0.3417921 0.09754928
0002b0 03 76 b5 bb 04 14 28 bf b7 2d 5c 3d 92 5d 4f bc
       -0.0055377497 -0.6565554 0.053754535 -0.012656586
0002c0 35 77 d9 bc f1 c5 a2 3c 2e b7 86 be fa e2 e4 3c
       -0.0265461 0.019869776 -0.2631163 0.027940262
0002d0 6a ca 2c 3e ed fd b2 3d 4f 1a 8b 3e 9c 3a 43 bf
       0.1687409 0.08739839 0.2716851 -0.76261306
0002e0 74 29 3c be 66 2e d5 3d e8 43 15 bf a9 bc 0d 3d
       -0.18375188 0.104092404 -0.5830674 0.03460375
0002f0 94 71 d3 3d 57 a3 9e 3b 7e 8c 18 bf 64 a9 f2 3b
       0.10324398 0.004841249 -0.59589374 0.007405447
000300 45 a7 56 3c 76 9b 9b be 57 de 06 bf 64 aa a8 be
       0.013101404 -0.30392045 -0.52683014 -0.32942498
000310 f9 18 20 3d bf 49 e0 bd 34 2b f1 3d 72 96 71 3e
       0.039086316 -0.10951566 0.117758185 0.23592547
000320 e2 dd 6c bd 54 22 c4 ba 0a 85 c3 bc b5 60 1e bf
       -0.05782879 -0.0014963844 -0.023867149 -0.61866313
000330 49 58 b4 be f3 ac 5c be 4f 72 15 3e f4 68 11 3e
       -0.35223606 -0.2155035 0.14594387 0.14200193
000340 82 30 1e 3d c5 94 00 bf ba 47 d6 be 7a ab ed 3d
       0.03862048 -0.50227004 -0.41851598 0.11604972
000350 c9 4f 10 be a1 21 fc 3d 8f ce fb be ce fd 1f bf
       -0.14092936 0.12311102 -0.4918103 -0.6249665
000360 72 af 2f bf 86 ec b4 3d c2 68 1a 3d f3 67 60 be
       -0.68627083 0.08834176 0.03769756 -0.21914653
000370 69 45 10 3e cc 21 a4 bb 3a 71 5d 3e 32 80 71 be
       0.14088978 -0.0050089117 0.21625224 -0.23584059
000380 e4 fb ee be 06 21 0a 3c 88 a8 b1 be 04 ac a2 be
       -0.46676552 0.008430725 -0.34698892 -0.31771863
000390 78 20 84 bd 0d 37 eb 3a a9 ae 08 bd 9d 8d a2 be
       -0.064515054 0.0017945484 -0.033369694 -0.31748667
0003a0 73 b7 8c 3d 63 5d 94 bd ab 00 08 3e 10 2c 5f 3d
       0.06870928 -0.072443746 0.13281505 0.05448538
0003b0 d3 6a cb 3c fd 5a 2e 3d c9 66 a7 3d b2 75 85 bd
       0.024831211 0.042567242 0.081739016 -0.06516589
0003c0 be 7d 61 3d fd e3 21 3e 89 bc 20 bd d7 bb ab 3d
       0.055051558 0.15809627 -0.0392423 0.08385437
0003d0 ee a9 8d 3d 5d d6 1c be 5f df 05 3e 7b 5b 80 be
       0.06917177 -0.15316148 0.1307349 -0.25069794
0003e0 58 74 af bd e7 b3 0c be 42 89 a9 be 3c 5e 57 bb
       -0.08567113 -0.13740502 -0.33112532 -0.0032862565
0003f0 0a bc 36 be 4b df 20 bd 73 a8 eb 3c 29 f2 bc 3d
       -0.17845169 -0.03927545 0.028766846 0.09225876

layer2.bias f4 [10]
000000 ae fc a9 bd aa 3b e3 ba 30 f0 af 3c a1 0e 6b bd
       -0.08300148 -0.0017336507 0.021476835 -0.057386998
000010 5e e0 ad 3d e2 e3 14 3e 1d a8 31 3d 0c 10 56 bd
       0.0849006 0.14540055 0.043373216 -0.052261397
000020 cd 5b 1d 3e 8d ed 6f bb
       0.1536705 -0.0036610097
